one_2_one/ckpts/gnn_based_test/best_model_epoch.ckpt (torch, 12423 bytes, 23 tensors)

gcn1.attn_linear.weight f8 [6, 6]
00000000: 0000 00c0 ccf9 d33f 0000 0000 b5af d53f
00000010: 0000 0080 f37b b8bf 0000 0040 5a00 d83f
00000020: 0000 0080 1be6 b6bf 0000 0000 e716 b53f
00000030: 0000 00c0 e470 c9bf 0000 0080 5cb0 ce3f
00000040: 0000 0040 6908 d73f 0000 0040 0c2b d3bf
00000050: 0000 00c0 d3b5 d63f 0000 0080 708f b33f
00000060: 0000 0040 b34d d33f 0000 0000 e14e ac3f
00000070: 0000 0080 7632 c93f 0000 0000 1f83 adbf
00000080: 0000 0040 4124 d43f 0000 0000 3ee5 ae3f
00000090: 0000 0040 2465 c8bf 0000 0000 cba3 ba3f
000000a0: 0000 00c0 7e13 c8bf 0000 0000 4383 a8bf
000000b0: 0000 0000 6039 c5bf 0000 00c0 1d55 d13f
000000c0: 0000 0060 e49f d4bf 0000 0020 2817 c8bf
000000d0: 0000 0000 ed82 bdbf 0000 00c0 826b cfbf
000000e0: 0000 0000 6fba a33f 0000 0040 54ce d9bf
000000f0: 0000 0080 a998 d73f 0000 0040 df31 d6bf
00000100: 0000 0000 e42b d43f 0000 0080 8964 b13f
00000110: 0000 0080 baf7 c0bf 0000 0080 4e25 d03f
0.31212157011032104 0.3388493061065674 -0.09564134478569031 0.3750215172767639 -0.08944866061210632 0.08238071203231812 -0.19875773787498474 0.23975712060928345
0.35988837480545044 -0.299502432346344 0.35484784841537476 0.07640746235847473 0.30161744356155396 0.05528929829597473 0.19685250520706177 -0.05764099955558777
0.3147128224372864 0.06034272909164429 -0.19058659672737122 0.1040617823600769 -0.18809494376182556 -0.047876447439193726 -0.16581344604492188 0.27082008123397827
-0.3222590386867523 -0.18820668756961823 -0.11527901887893677 -0.24546846747398376 0.038531750440597534 -0.4032183289527893 0.3686927556991577 -0.3467939496040344
0.31517887115478516 0.06794032454490662 -0.13256007432937622 0.2522770166397095

gcn1.attn_linear.bias f8 [6]
00000000: 0000 0000 c849 b03f 0000 00c0 411c d53f
00000010: 0000 0000 b0d9 a63f 0000 0000 e67a c0bf
00000020: 0000 0000 9f14 bc3f 0000 0000 6557 bcbf
0.06362581253051758 0.3298496603965759 0.044629573822021484 -0.12875056266784668 0.10968965291976929 -0.11070853471755981

gcn1.linear.weight f8 [10, 6]
00000000: 3b06 fe45 5203 c33f 77d3 a0c4 776f d63f
00000010: 8165 94c2 3574 d33f 65ae 3b47 24f6 c6bf
00000020: ff4d 8aec 1d10 cf3f b29e c522 c2cf bc3f
00000030: 3dad 42ca 7d31 c83f a334 fab4 ae50 d1bf
00000040: 9ed4 d24a c729 ddbf 0b5f d82c 549c c5bf
00000050: 0a2b f572 faea d5bf 08eb 21c5 3feb d13f
00000060: 99d3 b9c1 f6c9 ba3f 5487 70e2 2465 c53f
00000070: da31 704f 6258 bf3f ae79 0eba 7e45 91bf
00000080: 353a 79ed f91d d53f fd01 7c69 767d d4bf
00000090: b327 7f5c b62d 983f cf6a e867 4761 d1bf
000000a0: ec50 0057 5403 c73f 9cc0 420b 38cd c0bf
000000b0: 4887 a0de 7f7d c23f a19d 478e 2034 aabf
000000c0: f19d 019f 04ed d33f e492 2102 4d09 d2bf
000000d0: 383e 83c9 36ee d2bf cb1a c52e 267d d1bf
000000e0: cf3e 8e7e c268 d43f 8bb6 9294 35c9 bf3f
000000f0: bdb4 b11f 3a21 da3f c694 70e0 709b d4bf
00000100: 6128 036c 5e84 d8bf 2fc9 fdaa 745a d3bf
00000110: 3c50 7756 0792 d0bf 75dd 9953 fee0 c83f
00000120: f634 f2a9 ccfb c03f 224d 3241 6dd4 d43f
00000130: 88e5 ecb4 32d3 d0bf b860 82ce 7505 d4bf
00000140: 6e6d f13c dff4 c73f 64e9 3eed 7be1 ccbf
00000150: 8300 8486 c4c9 ce3f d024 f5b8 177b bbbf
00000160: 1dc5 1e69 3bd2 ce3f 81c5 c024 094b d4bf
00000170: 119f 39b4 b1fb cbbf 678c e872 04db c33f
00000180: 57a8 d782 a323 b53f a413 2885 c13a b7bf
00000190: ae7b da8a 67d4 d23f a547 e020 b532 d23f
000001a0: f193 09ec ea27 d1bf a1a4 b795 1552 ccbf
000001b0: 1ccd a687 633e d63f 4820 2557 9445 c6bf
000001c0: 5c7b a862 0f7d bdbf a434 3a60 f16a d8bf
000001d0: badb e05c 43fa d0bf ba65 b131 1e35 c43f
0.14853886048881457 0.3505534572789694 0.3039678955261352 -0.17938664892368475 0.2426793484670355 0.11254514073300007 0.18901035667418312 -0.2705494658810698
-0.45567495638835875 -0.16883327665049594 -0.3424669382699653 0.2799834656831739 0.10464422444949974 0.16714917236918814 0.12244238318834935 -0.016866664987554784
0.3299546069219191 -0.32015762616359195 0.023611878772306926 -0.2715624346471203 0.17978910682780425 -0.13126278447953588 0.14445494051420327 -0.05117894875348417
0.31134143379173823 -0.2818176766216267 -0.2957894294640684 -0.27326349799515687 0.31889402731847566 0.1241639602401056 0.4082780179513284 -0.3219873611254339
-0.38307915256576136 -0.3023959798657811 -0.2589128822703548 0.19436625558931167 0.13268430994177266 0.3254655014690845 -0.26289050739759334 -0.31283326308176695
0.18716040111290105 -0.22563122829690052 0.2405324608625997 -0.10734699502531275 0.24079077370473892 -0.31707981671487323 -0.21861859607746983 0.15512137995492312
0.08257505363840899 -0.09074029446499182 0.29421413955599973 0.28434494219356515 -0.26806138086823156 -0.2212550145189072 0.3475579094621979 -0.1739983964455425
-0.11518951567312058 -0.3815272750587815 -0.2652748496070064 0.15787103105939854

gcn1.linear.bias f8 [10]
00000000: 206e bf52 b6eb b0bf b3a4 0967 08fb d1bf
00000010: 3a64 12be fd2a aa3f 82d3 7edc 9d3d d1bf
00000020: 094a 20d7 5c5d d8bf adae 13cf bc14 cdbf
00000030: a469 d107 4d60 d4bf 6c45 4883 c576 d2bf
00000040: da85 d5f4 b2a2 db3f d0ea 58fa b39a a33f
-0.06609668274125413 -0.2809468275286903 0.051109246685151224 -0.2693857816005264 -0.3806984043923483 -0.22719535933662396 -0.31837774051168766 -0.2884992391637613
0.4318053618390799 0.03828966551778523

gcn1.attn_weight_linear.weight f8 [1, 6]
00000000: 0000 0080 661a c03f 0000 00a0 7b5e d8bf
00000010: 0000 0040 fd28 d1bf 0000 00c0 c564 c1bf
00000020: 0000 0000 b457 b03f 0000 00a0 90fd d6bf
0.12580567598342896 -0.38076677918434143 -0.26812678575515747 -0.13588783144950867 0.06383824348449707 -0.35922637581825256

gcn1.attn_weight_linear.bias f8 [1]
00000000: 0000 00e0 fe83 c6bf
-0.17590318620204926

gcn2.attn_linear.weight f8 [10, 10]
00000000: 0000 00a0 7e3b c8bf 0000 0000 40b7 4c3f
00000010: 0000 0080 941f bebf 0000 0000 6c70 96bf
00000020: 0000 00a0 b36d cbbf 0000 00c0 87c8 cbbf
00000030: 0000 0040 4c9d c7bf 0000 0040 e0b5 bbbf
00000040: 0000 00e0 a5f2 cfbf 0000 0020 2df8 d03f
00000050: 0000 0080 0711 b0bf 0000 00e0 c769 d13f
00000060: 0000 0080 5239 b93f 0000 00c0 5123 d1bf
00000070: 0000 0040 f902 cc3f 0000 0040 2f46 b6bf
00000080: 0000 0040 2a08 bfbf 0000 0080 a8cc d0bf
00000090: 0000 0060 d21e d4bf 0000 0080 7129 b73f
000000a0: 0000 00c0 18af b1bf 0000 0000 7384 bf3f
000000b0: 0000 0060 eb9b d0bf 0000 00c0 290d ce3f
000000c0: 0000 0040 60b6 cdbf 0000 0000 12f5 abbf
000000d0: 0000 0000 aee8 b03f 0000 00c0 7ae5 c43f
000000e0: 0000 0060 bc56 d03f 0000 00a0 bf6f d23f
000000f0: 0000 0080 300c d0bf 0000 0000 a15f b43f
00000100: 0000 00c0 0769 c1bf 0000 0000 23be a1bf
00000110: 0000 00c0 f74b cebf 0000 0020 3a6f d23f
00000120: 0000 0060 4eb5 cdbf 0000 0080 10a2 c53f
00000130: 0000 0000 5773 bc3f 0000 0000 7c4e ba3f
00000140: 0000 0000 42e2 c5bf 0000 00a0 5865 d23f
00000150: 0000 0080 2cca b13f 0000 0000 f3d3 a43f
00000160: 0000 0000 d9d5 d1bf 0000 0080 e9fd c03f
00000170: 0000 0000 254a a8bf 0000 0040 278b c2bf
00000180: 0000 0060 4462 d13f 0000 0080 750c b23f
00000190: 0000 0040 2265 c6bf 0000 0020 b07c c4bf
000001a0: 0000 0000 a0ed 8ebf 0000 0000 d399 c63f
000001b0: 0000 0080 c2af b4bf 0000 0020 6218 c7bf
000001c0: 0000 00c0 e3b8 bbbf 0000 0080 4d3d cebf
000001d0: 0000 0080 f5de bc3f 0000 00c0 b854 cf3f
000001e0: 0000 0080 ac0d d3bf 0000 0000 3ccd b23f
000001f0: 0000 0080 00e9 c43f 0000 0000 d95b ad3f
00000200: 0000 0040 6fd4 bcbf 0000 0080 7120 c53f
00000210: 0000 0080 7245 c53f 0000 0080 6145 be3f
00000220: 0000 0000 6873 acbf 0000 0040 d26f b5bf
00000230: 0000 0000 3652 a13f 0000 0000 119a acbf
00000240: 0000 0040 dd1f b8bf 0000 00c0 8edf c93f
00000250: 0000 0020 9d64 d13f 0000 0000 4d07 a0bf
00000260: 0000 0040 1b20 b2bf 0000 0000 a0e6 723f
00000270: 0000 0000 a655 93bf 0000 0000 5b76 b33f
00000280: 0000 0080 a5af b63f 0000 0040 bf61 d2bf
00000290: 0000 00c0 0ce0 bdbf 0000 00e0 220b d13f
000002a0: 0000 0080 4189 bf3f 0000 0000 1c1b 90bf
000002b0: 0000 00a0 6667 c8bf 0000 0000 9ec3 c8bf
000002c0: 0000 0040 0921 d2bf 0000 0000 5863 babf
000002d0: 0000 0000 af56 bb3f 0000 00c0 21cf c93f
000002e0: 0000 0080 2db0 c23f 0000 00e0 c7e3 d1bf
000002f0: 0000 00a0 6857 c8bf 0000 0000 488d a9bf
00000300: 0000 0020 e993 d33f 0000 0000 da6b a73f
00000310: 0000 0000 fdf6 b4bf 0000 00c0 fabe c03f
-0.18931563198566437 0.0008763372898101807 -0.11766937375068665 -0.021913230419158936 -0.21428532898426056 -0.21705719828605652 -0.18448784947395325 -0.10824395716190338
-0.24959252774715424 0.26514747738838196 -0.06275984644889832 0.2720813453197479 0.09853091835975647 -0.26778072118759155 0.21884074807167053 -0.08700843155384064
-0.12121833860874176 -0.2624913454055786 -0.3143812119960785 0.0904761254787445 -0.06907801330089569 0.12311476469039917 -0.25951656699180603 0.23477670550346375
-0.23212817311286926 -0.05460411310195923 0.06605041027069092 0.16325315833091736 0.25529393553733826 0.28807058930397034 -0.2507439851760864 0.07958418130874634
-0.13601776957511902 -0.03465375304222107 -0.2366933524608612 0.2880387604236603 -0.23209552466869354 0.1690083146095276 0.11113494634628296 0.10276007652282715
-0.17096734046936035 0.2874356806278229 0.0694911777973175 0.04067954421043396 -0.27867722511291504 0.1327487826347351 -0.047440677881240845 -0.14487162232398987
0.27162274718284607 0.07050260901451111 -0.17496135830879211 -0.16005517542362213 -0.01510167121887207 0.17656934261322021 -0.08080688118934631 -0.18043161928653717
-0.1082899421453476 -0.23624581098556519 0.11277708411216736 0.2447730004787445 -0.297709584236145 0.07344412803649902 0.16336065530776978 0.05734136700630188
-0.11261649429798126 0.165052592754364 0.16618186235427856 0.1182461678981781 -0.05556797981262207 -0.08373750746250153 0.033830344676971436 -0.05586293339729309
-0.09423620998859406 0.20213493704795837 0.27176597714424133 -0.0313057005405426 -0.07080240547657013 0.004614472389221191 -0.018881410360336304 0.07602471113204956
0.08861765265464783 -0.2872160077095032 -0.11669997870922089 0.26630470156669617 0.12318810820579529 -0.015728414058685303 -0.19065554440021515 -0.19346976280212402
-0.2832663655281067 -0.10307836532592773 0.1067914366722107 0.20163366198539734 0.14600151777267456 -0.2795276343822479 -0.19016750156879425 -0.049906015396118164
0.30590274930000305 0.04574471712112427 -0.08189374208450317 0.13082823157310486

gcn2.attn_linear.bias f8 [10]
00000000: 0000 0040 81d5 bebf 0000 0000 f632 cabf
00000010: 0000 00c0 338b cd3f 0000 0040 b067 c2bf
00000020: 0000 0080 883a b0bf 0000 0000 2822 d4bf
00000030: 0000 0040 1517 cb3f 0000 00c0 b9aa ce3f
00000040: 0000 0080 ef80 bd3f 0000 00c0 4239 ccbf
-0.12044532597064972 -0.2046802043914795 0.23081061244010925 -0.14378932118415833 -0.06339314579963684 -0.31458473205566406 0.21164193749427795 0.23958513140678406
0.1152486503124237 -0.22049745917320251

gcn2.linear.weight f8 [10, 10]
00000000: 0000 0000 69f9 d3bf 0000 0000 f66f d0bf
00000010: 0000 0040 0f2f ce3f 0000 00c0 ed6e c33f
00000020: 0000 00e0 e507 d13f 0000 0040 6b34 c53f
00000030: 0000 0080 287d b43f 0000 0000 505e 69bf
00000040: 0000 0080 7ac8 cebf 0000 0060 0057 d1bf
00000050: 0000 00a0 1cee d2bf 0000 00c0 de91 c03f
00000060: 0000 0000 7cdf c3bf 0000 0000 d24a b0bf
00000070: 0000 0000 794b c7bf 0000 0000 ea80 adbf
00000080: 0000 0060 3e7d ccbf 0000 00c0 ca72 cabf
00000090: 0000 0080 79da ba3f 0000 0000 300f b8bf
000000a0: 0000 00c0 00fd c83f 0000 00c0 89f8 b9bf
000000b0: 0000 00c0 55b1 cdbf 0000 0000 2691 acbf
000000c0: 0000 00a0 069f c3bf 0000 0000 6dc4 b8bf
000000d0: 0000 0080 5c44 d3bf 0000 0080 87a5 c63f
000000e0: 0000 0040 2d2e ccbf 0000 0080 3358 c43f
000000f0: 0000 0040 2e5e c23f 0000 0040 0feb cc3f
00000100: 0000 0040 4f0c cfbf 0000 0040 6d1c cd3f
00000110: 0000 0040 b922 c3bf 0000 0080 260a be3f
00000120: 0000 00e0 9f01 d33f 0000 0000 93d5 a6bf
00000130: 0000 0000 b008 64bf 0000 0040 5ea3 b2bf
00000140: 0000 0040 1ee6 d0bf 0000 0080 d36c c33f
00000150: 0000 00a0 5817 d4bf 0000 00c0 d220 c93f
00000160: 0000 00c0 3849 ce3f 0000 00a0 c623 d33f
00000170: 0000 0080 7018 b3bf 0000 0020 fda0 d0bf
00000180: 0000 0080 7333 b23f 0000 00c0 555c c63f
00000190: 0000 0020 c524 d4bf 0000 0000 1460 b2bf
000001a0: 0000 0000 a643 c8bf 0000 0000 8052 9cbf
000001b0: 0000 0000 64ec c3bf 0000 0020 b68b c0bf
000001c0: 0000 0000 1db3 b9bf 0000 00e0 983b d3bf
000001d0: 0000 00a0 1c9b d03f 0000 0020 75f7 d03f
000001e0: 0000 0000 0166 a9bf 0000 0000 4170 a2bf
000001f0: 0000 0020 0085 c0bf 0000 0040 d646 d2bf
00000200: 0000 0060 efb1 d3bf 0000 0080 5c16 be3f
00000210: 0000 00a0 4c39 c6bf 0000 00c0 9605 cabf
00000220: 0000 0000 e843 99bf 0000 0080 6cf5 babf
00000230: 0000 0000 be30 babf 0000 0000 2ccf 843f
00000240: 0000 00c0 e12b b1bf 0000 0080 a2df bbbf
00000250: 0000 0080 7561 c3bf 0000 0060 8078 d0bf
00000260: 0000 0060 5ef8 d03f 0000 00c0 cc32 c0bf
00000270: 0000 0000 8473 b53f 0000 0080 a016 bcbf
00000280: 0000 0000 5650 9a3f 0000 00a0 51de d23f
00000290: 0000 0000 14a6 c23f 0000 0020 eb89 d1bf
000002a0: 0000 0040 c410 c03f 0000 0060 1936 d33f
000002b0: 0000 0000 384c b53f 0000 00c0 0a23 cb3f
000002c0: 0000 0020 f5f3 d33f 0000 0000 21cf a8bf
000002d0: 0000 0000 6ccd b03f 0000 0000 0f22 ccbf
000002e0: 0000 0000 ceae b0bf 0000 00c0 0afa cd3f
000002f0: 0000 0040 1dc0 c43f 0000 0040 0e9d c9bf
00000300: 0000 0080 a03a d0bf 0000 0040 1ea9 cbbf
00000310: 0000 0080 16f9 d3bf 0000 0000 d73b cfbf
-0.31209778785705566 -0.256833553314209 0.23581114411354065 0.1518227756023407 0.26610705256462097 0.16566219925880432 0.0800347626209259 -0.0030967295169830322
-0.24049311876296997 -0.27093514800071716 -0.2957831919193268 0.12945160269737244 -0.1552577018737793 -0.06364166736602783 -0.18199074268341064 -0.05762416124343872
-0.22257213294506073 -0.20662817358970642 0.10489615797996521 -0.09398174285888672 0.19522103667259216 -0.10144864022731781 -0.23197433352470398 -0.05579489469528198
-0.15329058468341827 -0.09674721956253052 -0.3010474443435669 0.17692655324935913 -0.22015920281410217 0.15894168615341187 0.14349916577339172 0.22592344880104065
-0.2425631582736969 0.22743001580238342 -0.14949718117713928 0.11734238266944885 0.29697415232658386 -0.04459819197654724 -0.0024455487728118896 -0.07280530035495758
-0.2640452980995178 0.15175861120224 -0.3139249384403229 0.19631418585777283 0.236609548330307 0.29905858635902405 -0.07459166646003723 -0.2598259747028351
0.07109758257865906 0.17469283938407898 -0.3147442638874054 -0.07177853584289551 -0.18956446647644043 -0.027658462524414062 -0.15565156936645508 -0.12926365435123444
-0.10038930177688599 -0.30051252245903015 0.2594672739505768 0.26510360836982727 -0.04960635304450989 -0.0360126793384552 -0.1290588527917862 -0.2855735421180725
-0.30773529410362244 0.11752870678901672 -0.17362363636493683 -0.20329555869102478 -0.024673104286193848 -0.10530737042427063 -0.10230624675750732 0.010160773992538452
-0.06707583367824554 -0.1088811457157135 -0.15141171216964722 -0.25735482573509216 0.2651592195034027 -0.12655028700828552 0.08379387855529785 -0.10972025990486145
0.02569708228111267 0.29481926560401917 0.14569330215454102 -0.27404287457466125 0.12551167607307434 0.3001769483089447 0.08319425582885742 0.21200689673423767
0.31176498532295227 -0.048455268144607544 0.06563448905944824 -0.21978938579559326 -0.06516730785369873 0.23419317603111267 0.16211286187171936 -0.2001054584980011
-0.2535783052444458 -0.2160985767841339 -0.3120781183242798 -0.24401366710662842

gcn2.linear.bias f8 [10]
00000000: 0000 0000 1105 b4bf 0000 00c0 2d51 cb3f
00000010: 0000 0000 c319 ab3f 0000 0040 82c9 cebf
00000020: 0000 0000 623c d0bf 0000 0000 ea22 c43f
00000030: 0000 00c0 cb1b cebf 0000 0000 76ef a3bf
00000040: 0000 0080 c96a c33f 0000 0080 babb c2bf
-0.07820230722427368 0.21341487765312195 0.05293092131614685 -0.240524560213089 -0.25368547439575195 0.15731549263000488 -0.23522326350212097 -0.0389363169670105
0.15169638395309448 -0.14635401964187622

gcn2.attn_weight_linear.weight f8 [1, 10]
00000000: 0000 0000 8da7 a1bf 0000 0000 be2f 9cbf
00000010: 0000 0080 0627 b3bf 0000 00a0 f185 c4bf
00000020: 0000 0000 9c0a d2bf 0000 00a0 285c d0bf
00000030: 0000 00e0 88ac c5bf 0000 0020 148c d33f
00000040: 0000 0040 128d c3bf 0000 0080 792e cbbf
-0.034481436014175415 -0.027525871992111206 -0.07481423020362854 -0.1603376418352127 -0.28189754486083984 -0.255624920129776 -0.16932784020900726 0.3054247200489044
-0.1527426540851593 -0.21235579252243042

gcn2.attn_weight_linear.bias f8 [1]
00000000: 0000 0080 739f b33f
0.07665178179740906

concat_linear.weight f8 [3, 8]
00000000: 81de 9af6 1cdc c13f 29e0 32a5 da94 c73f
00000010: 7e06 f5d0 a706 d43f 0815 c5a9 c0d4 cd3f
00000020: a376 377d 1455 d6bf 9d0d a9d0 d05f b43f
00000030: 35f6 7cff d198 c83f bb1b e7d6 6310 a7bf
00000040: 1fe6 391a ee81 c8bf cae4 d19a c56c d33f
00000050: a866 9a8a 932c c0bf 813c b228 0a20 c9bf
00000060: 1691 b272 71af d3bf 1258 26e8 bd0b 943f
00000070: 36aa 6980 370c c23f 8a4c 9678 05d2 a93f
00000080: d797 949b 6a8b 773f 5ed5 34c1 3666 cdbf
00000090: a248 58af ea44 d8bf 098b 3143 9f10 a4bf
000000a0: e565 50f4 98b6 d33f a15c d4b6 31ff c33f
000000b0: bb04 924a c2fa c5bf 75e7 ffaa a07a 81bf
0.13952981988198945 0.1842301661142767 0.31290622144670255 0.23305519380134165 -0.3489428732699286 0.07958703130957763 0.19216370558744847 -0.04504692076039115
-0.19146515160154906 0.30351390952234836 -0.1263603617451754 -0.19629027354355702 -0.307583200463584 0.019576041502283266 0.14099782724527338 0.05043046090136112
0.005748192249745507 -0.2296818202391177 -0.37920634387513463 -0.0391893167041158 0.30801986559671796 0.1562254088137012 -0.17171505585796418 -0.008534674852842742

concat_linear.bias f8 [3]
00000000: f09f fcc1 cc78 ccbf da86 7f8b 3654 c7bf
00000010: b4ad 829e 67c4 a43f
-0.22243651840221856 -0.1822574788230245 0.040560949420377496

aspect_merge_linear.weight f8 [1, 5]
00000000: 0a5f 1aa5 1152 ce3f 13c2 db57 f729 d83f
00000010: 4572 a84a 6070 d9bf fbce 3123 c860 d23f
00000020: 9260 9abc 59dc d0bf
0.2368795448462538 0.3775614126198274 -0.3974838952142686 0.28715709149331275 -0.26344912927880515

aspect_merge_linear.bias f8 [1]
00000000: 1969 3e87 3670 ca3f
0.20654946902943364

Aspect_Representation.aspEmbed.weight f8 [20, 10]
00000000: 3c02 5222 ee6d d83f 6025 a270 637a 9c3f
00000010: 3ddd 3f3d 3d87 bf3f a546 33e6 a1c2 d1bf
00000020: dba7 78ff ae48 843f e9d6 ae2e d87e 95bf
00000030: adc8 a502 2da2 bb3f f3f6 dc4c 16bd c13f
00000040: b765 7226 c57e d73f dc67 dbdb 99be d8bf
00000050: 5e66 1d50 5cb7 6d3f bbc7 4610 12a4 d1bf
00000060: 4d71 5c99 4221 d6bf e05d 2318 8f65 b0bf
00000070: 1cf8 f1b0 6c0f d8bf 7fb7 6b57 ac39 d03f
00000080: 4db5 0a05 e957 b23f 575b 7c9b e880 d2bf
00000090: 7708 b178 8305 c93f 0b0f 1de0 cb9a ddbf
000000a0: 6116 dcf0 5f74 c4bf fa1f 1628 02db a6bf
000000b0: 5a13 52be c15a d8bf 4f65 763c 283f d1bf
000000c0: 5457 c47b 6e90 b6bf 6fb0 685c 285b d83f
000000d0: 2dcc f0d3 dffd db3f b9cb 9b39 6c0b d43f
000000e0: 0e14 963b bc08 d0bf 441d df67 9f26 d0bf
000000f0: 25ff d14b 0f20 d83f 1e72 3e69 d73e bc3f
00000100: a64e 264f f3e6 8a3f d085 1569 1098 a63f
00000110: 8a17 4839 f3fb d5bf 0073 6471 bfd0 c8bf
00000120: 207a 6d26 0866 db3f bf28 dbf8 c86c c2bf
00000130: d3e0 387c b2f5 a5bf 906c f13c ca95 dabf
00000140: 3d7e 3d28 d98f cebf faf4 ef57 6cdb a63f
00000150: ca94 bd09 612b d2bf b924 a372 9a70 9ebf
00000160: af5f 80a1 741f c53f 81b9 2c75 b978 d8bf
00000170: 813c 56f8 5113 be3f bb72 b673 2756 cfbf
00000180: af06 89be 5f47 c7bf e048 0318 47ef cb3f
00000190: c95e b9fc f0dc d53f 7690 1706 bf04 c6bf
000001a0: eda6 b5f9 6cae c7bf 575c c269 710c d8bf
000001b0: 1eea 1f50 bdc6 cebf 01bb 64f9 0c70 dcbf
000001c0: b1ab 240b e51c bcbf 61b5 d7c7 b19e a93f
000001d0: e101 d05b 4cd2 dabf 7688 8c97 4ee1 d53f
000001e0: 9f57 dd2e 6f3b d43f ed63 d276 da1a e0bf
000001f0: 46bb 6f5b 07d9 c4bf 1972 1bf7 9c75 bd3f
00000200: 82d0 9cd6 8994 b0bf a39e 2444 378d bdbf
00000210: 7260 3af0 3121 cabf ed2e 9e1a 83ee d23f
00000220: 85eb 9868 36f1 cdbf 35df 719b c2f0 d33f
00000230: e241 e8c8 44d3 a73f 8387 8180 15b4 bf3f
00000240: 1027 0fe5 8a07 d73f f1a6 cfd8 9e1d bcbf
00000250: 7081 5530 0f96 cebf ab82 12da 75d0 9abf
00000260: a9a4 e3dc 12ce d73f ba36 52b8 33f6 d2bf
00000270: 546a 71d7 9d6d ba3f c93b 60a7 1639 d9bf
00000280: 1d42 f795 2a26 cc3f 2ec8 4cd5 4f2f be3f
00000290: 9d40 419a 85d9 8f3f de8e c02b 5566 cc3f
000002a0: a854 9b38 e4dc 84bf 3fe1 91fc 5f17 c93f
000002b0: 3d93 5dfb 3d43 d7bf 51ba 366e 5702 bbbf
000002c0: eccf e069 bf5a c93f f8a4 a45b 6175 d93f
000002d0: 4670 2dfc 61dd c93f 6c1f 8e21 11aa d0bf
000002e0: 8f1f a37c 8bd8 d23f 1481 aba4 a863 b3bf
000002f0: ab2f 8524 3419 bebf a4ce 6d27 d5ba d5bf
00000300: 2f18 6773 35aa b0bf 936e f6ae 8235 d83f
00000310: c93a 84eb 4c12 a93f 9bad be9c 069a c9bf
00000320: daca 8699 ec6e c43f bb4e e773 a199 c3bf
00000330: 2034 c0f6 1a38 da3f 42b5 272a 285f d9bf
00000340: 561a e04b 0652 bdbf 0208 065b cba5 ddbf
00000350: e9d3 61a0 5297 c4bf d9c2 5183 9d96 bf3f
00000360: 4fd6 f013 b701 dc3f 84b7 191f 660a b43f
00000370: c08b 47fa a5a0 db3f caed 1c7c ea0c a73f
00000380: 4417 c634 0b07 d03f be92 6cdd 8819 d63f
00000390: f123 0d6d 1eba d83f b79a 12f3 d1e7 d2bf
000003a0: 7cf7 c781 e379 d93f b30b f07e 7d01 ce3f
000003b0: 7f25 8305 869d c9bf c284 f343 c303 d1bf
000003c0: 1a86 2d9c 1c52 d9bf 82da e830 bb9c bd3f
000003d0: 0707 a44d 1951 d7bf e889 75ed 14f3 c83f
000003e0: 0ea3 a68d d40e be3f 3b7b 52e3 274d d7bf
000003f0: 764a 46da e8c8 bb3f cb7a 5a89 1680 99bf
00000400: def4 83a7 336e c93f bf20 13cb 7b84 cf3f
00000410: 9692 6e8d c211 dbbf 4188 97c9 66b2 d93f
00000420: 7b50 8534 ff1c d83f 28fb 5a87 2fc2 c53f
00000430: 1ef9 0b9a 1b7e d8bf 630b a3c9 3a45 c8bf
00000440: adcc 2f84 5f43 bdbf 3e81 a3f5 d6cd c0bf
00000450: e120 9885 9d92 d03f e984 f037 0a6a c53f
00000460: 6c75 1850 7391 d63f cf6c 1dd5 4a85 bfbf
00000470: 483f f6a5 8a9e c43f 2fcb 3d02 fbc2 c63f
00000480: 0288 c7f5 f77d d9bf 9633 2b1d 198e d8bf
00000490: 1be0 4d7b 3811 ccbf a096 7d4d 13a2 d63f
000004a0: 4424 3eda e8bc dbbf b8c7 53da dd3f d5bf
000004b0: d63e b8d3 ccb6 d13f ee84 16b0 9ae7 c93f
000004c0: 3fbf 8728 b1b4 d83f bc6d 6c4f 9d9e d7bf
000004d0: 89bc bfd4 f07e d1bf bee3 1c65 b043 cb3f
000004e0: f395 043d e77d da3f 0d33 d296 3220 d03f
000004f0: 2ed7 5dbb 9ca1 ab3f c8aa 27b5 e260 c33f
00000500: a669 0a6b 8411 da3f b50a 7511 28ef d3bf
00000510: 9a9f 8e06 eb84 cbbf a47c 24bb ec81 d43f
00000520: b6e2 c07f 41d1 d2bf 9555 4045 4dfd d2bf
00000530: f796 8e21 f1d5 d33f 573a 66b0 5923 b63f
00000540: 046e 1b9c d58a c23f d1cd 7630 38c2 cebf
00000550: ab50 f728 56fd a0bf 77a1 170e b08a dc3f
00000560: f7c7 8193 e07d d2bf a379 b098 1e08 a33f
00000570: 447d e71d bb51 c43f 5f1e 2739 b259 d3bf
00000580: 012c 7dbb 0f09 da3f 979f 05d5 8a3e ccbf
00000590: 9829 1337 6d31 b7bf 5840 ec5c 93a0 c1bf
000005a0: 865f 3fd7 5efa d0bf 5389 7df6 9586 debf
000005b0: e5cc 2896 3050 d13f d253 cbc7 e048 b63f
000005c0: a9e5 4c8d d45d d7bf 401c e926 6c57 d3bf
000005d0: 68b8 fb68 64e7 dd3f 0e39 bb2b 6b36 c43f
000005e0: 66a5 20a8 83e6 c43f 9968 5cce 2e9a d0bf
000005f0: 4693 250f 45c4 c7bf a897 96c5 abdc a1bf
00000600: e46b d67c 6d3a b3bf 8f83 ff11 92c5 d3bf
00000610: 5da0 353b 6699 8d3f 6cac 604e 5a29 b93f
00000620: 63fe bae3 a01b a8bf b136 bc4b 5c77 bd3f
00000630: 1b1f d950 cc5c c6bf 7afc d89c 0931 c53f
0.3817096076163897 0.027810624837490194 0.12315733666752222 -0.27750442009446835 0.009904257937780095 -0.02099168572359292 0.10794335665358075 0.1385829806621853
0.3671124339540159 -0.38663336248793967 0.003627472208717105 -0.2756390723180819 -0.34578003861112877 -0.06404966677961665 -0.37594144134334484 0.25352009331879083
0.07165390370456244 -0.289117957917758 0.1954807605089319 -0.4625730217560295 -0.15980147610405296 -0.04463965167366264 -0.38053935609814504 -0.2694798078969897
-0.08814135095266568 0.380563822024448 0.4373702592594693 0.3131971895774615 -0.2505331594368848 -0.2523573412294875 0.376956771891843 0.11033388442451339
0.01313581548018956 0.04412890703930439 -0.3435028132811274 -0.19387047802674573 0.42810252907466584 -0.1439448561780576 -0.042890145934906386 -0.41539245559187865
-0.23876490082601434 0.0446428162904144 -0.28389764739251844 -0.029726422545341722 0.16502244840444066 -0.38236843531458226 0.11748230278884543 -0.2448167147639618
-0.18186566165427595 0.21823967621327878 0.34161019020164624 -0.17201984212363514 -0.18501054947710519 -0.37575946167038893 -0.24044004833543026 -0.44433903078872566
-0.10981589815189242 0.05003886761174204 -0.4190855881315923 0.34187664794638495 0.3161275823271072 -0.503277999948407 -0.16287319149656748 0.11507588417902816
-0.06476651658596391 -0.11543603337906432 -0.2041380331982086 0.29580762481121675 -0.23392372233669448 0.31156983547360834 0.046533727192698895 0.12384161364891892
0.3598353611856604 -0.10982697289696454 -0.23895444736536886 -0.026185838160588542 0.3719527394410514 -0.2962769794474799 0.10323511609878128 -0.39410940499595576
0.2199147445922031 0.11790942151563463 0.015551608819947932 0.22187294613205827 -0.010186942079068409 0.19602584679138066 -0.36347913310446583 -0.1055044788433659
0.19808190030892037 0.39778932523275 0.2020685654960081 -0.2603800609290292 0.2944668500099334 -0.0757394220377175 -0.11757207767112614 -0.3395283589409053
-0.06509718005608599 0.3782660206431753 0.04896774649579567 -0.20001299527698965 0.15963513847744687 -0.15312593612053668 0.40967439743764267 -0.3964329158469192
-0.1145328459971123 -0.4632442845251036 -0.16086800414237182 0.12339195686378036 0.4376046843275149 0.07828367480553139 0.4316801971564779 0.04502041592646895
0.2504299178475444 0.34530851005028385 0.38635979318183816 -0.2953991769558501 0.3980644957917929 0.23442047784928163 -0.20011973637728528 -0.26585466037620276
-0.39563670398465123 0.11567277854997296 -0.3643248804292942 0.19491826624569275 0.11741379221224355 -0.36408421706612487 0.10853438691109737 -0.024902679570568503
0.19867559127297957 0.24623057761914954 -0.4229589825793395 0.40151376425467694 0.37676983002643966 0.1699885760226263 -0.38269701045637017 -0.18961272092391387
-0.11430928208555953 -0.13128172868801785 0.2589486889487614 0.16729858142301815 0.3526275903876328 -0.12312762930871489 0.16108830550774145 0.17782533273165188
-0.39831351282020944 -0.38367297981749837 -0.21927553196633273 0.35364229743422904 -0.4334051257397429 -0.3320231086828431 0.276782233006981 0.20238050077481468
0.38602856596024887 -0.36905606037336347 -0.2733728482844034 0.21300320565367586 0.41393452605038233 0.2519651863920423 0.05396737849416265 0.15139421315628554
0.40731916859808803 -0.3114719553451935 -0.2149938375489427 0.3204299762309779 -0.29402196384357226 -0.2967103172571453 0.30993297841119677 0.08647690350174152
0.14486189005297956 -0.2403021084443098 -0.033182804585210356 0.445964826356906 -0.28893293766952816 0.03717132200130215 0.15874422989052495 -0.3023496206410296
0.40680306729763066 -0.2206586399217911 -0.09059794039345659 -0.1377128795361411 -0.2652814008738392 -0.47696446486783833 0.27051939643861395 0.08704953077115299
-0.3651019458662526 -0.3022108440386013 0.46724806072496117 0.1579107249767237 0.1632847376761603 -0.2594105735057695 -0.18567717780674736 -0.034886710996303194
-0.0751102857379205 -0.30893375165583675 0.014452742273263814 0.09828724301830655 -0.047085788535238725 0.11510254715923442 -0.17470697353041306 0.16555900724958744

Aspect_Representation.linear.weight f8 [1, 5]
00000000: 153e b919 83f9 c53f 5884 e7b0 7d6b ccbf
00000010: 5763 d3b3 b267 dcbf c5d9 3c2b d4ad cb3f
00000020: e71b 72a7 7614 bb3f
0.1716770053485425 -0.22203036439808232 -0.44382922707659617 0.21624233351913183 0.10578099811583251

Aspect_Representation.linear.bias f8 [1]
00000000: be9e fb7f ff1c cdbf
-0.2274474501530132

batch_norm.weight f8 [4]
00000000: 0000 0000 0000 f03f 0000 0000 0000 f03f
00000010: 0000 0000 0000 f03f 0000 0000 0000 f03f
1.0 1.0 1.0 1.0

batch_norm.bias f8 [4]
00000000: 0000 0000 0000 0000 0000 0000 0000 0000
00000010: 0000 0000 0000 0000 0000 0000 0000 0000
0.0 0.0 0.0 0.0

batch_norm.running_mean f8 [4]
00000000: 0000 0000 0000 0000 0000 0000 0000 0000
00000010: 0000 0000 0000 0000 0000 0000 0000 0000
0.0 0.0 0.0 0.0

batch_norm.running_var f8 [4]
00000000: 0000 0000 0000 f03f 0000 0000 0000 f03f
00000010: 0000 0000 0000 f03f 0000 0000 0000 f03f
1.0 1.0 1.0 1.0
