one_2_one/ckpts/gnn_based_train/best_model_epoch.ckpt (torch, 12423 bytes, 23 tensors)

gcn1.attn_linear.weight f8 [6, 6]
000000 00 00 00 c0 cc f9 d3 3f 00 00 00 00 b5 af d5 3f
       0.31212157011032104 0.3388493061065674
000010 00 00 00 80 f3 7b b8 bf 00 00 00 40 5a 00 d8 3f
       -0.09564134478569031 0.3750215172767639
000020 00 00 00 80 1b e6 b6 bf 00 00 00 00 e7 16 b5 3f
       -0.08944866061210632 0.08238071203231812
000030 00 00 00 c0 e4 70 c9 bf 00 00 00 80 5c b0 ce 3f
       -0.19875773787498474 0.23975712060928345
000040 00 00 00 40 69 08 d7 3f 00 00 00 40 0c 2b d3 bf
       0.35988837480545044 -0.299502432346344
000050 00 00 00 c0 d3 b5 d6 3f 00 00 00 80 70 8f b3 3f
       0.35484784841537476 0.07640746235847473
000060 00 00 00 40 b3 4d d3 3f 00 00 00 00 e1 4e ac 3f
       0.30161744356155396 0.05528929829597473
000070 00 00 00 80 76 32 c9 3f 00 00 00 00 1f 83 ad bf
       0.19685250520706177 -0.05764099955558777
000080 00 00 00 40 41 24 d4 3f 00 00 00 00 3e e5 ae 3f
       0.3147128224372864 0.06034272909164429
000090 00 00 00 40 24 65 c8 bf 00 00 00 00 cb a3 ba 3f
       -0.19058659672737122 0.1040617823600769
0000a0 00 00 00 c0 7e 13 c8 bf 00 00 00 00 43 83 a8 bf
       -0.18809494376182556 -0.047876447439193726
0000b0 00 00 00 00 60 39 c5 bf 00 00 00 c0 1d 55 d1 3f
       -0.16581344604492188 0.27082008123397827
0000c0 00 00 00 60 e4 9f d4 bf 00 00 00 20 28 17 c8 bf
       -0.3222590386867523 -0.18820668756961823
0000d0 00 00 00 00 ed 82 bd bf 00 00 00 c0 82 6b cf bf
       -0.11527901887893677 -0.24546846747398376
0000e0 00 00 00 00 6f ba a3 3f 00 00 00 40 54 ce d9 bf
       0.038531750440597534 -0.4032183289527893
0000f0 00 00 00 80 a9 98 d7 3f 00 00 00 40 df 31 d6 bf
       0.3686927556991577 -0.3467939496040344
000100 00 00 00 00 e4 2b d4 3f 00 00 00 80 89 64 b1 3f
       0.31517887115478516 0.06794032454490662
000110 00 00 00 80 ba f7 c0 bf 00 00 00 80 4e 25 d0 3f
       -0.13256007432937622 0.2522770166397095

gcn1.attn_linear.bias f8 [6]
000000 00 00 00 00 c8 49 b0 3f 00 00 00 c0 41 1c d5 3f
       0.06362581253051758 0.3298496603965759
000010 00 00 00 00 b0 d9 a6 3f 00 00 00 00 e6 7a c0 bf
       0.044629573822021484 -0.12875056266784668
000020 00 00 00 00 9f 14 bc 3f 00 00 00 00 65 57 bc bf
       0.10968965291976929 -0.11070853471755981

gcn1.linear.weight f8 [10, 6]
000000 19 59 d9 e5 66 14 c1 3f 31 92 78 0f e0 30 d5 3f
       0.13343511794182275 0.33110810767019233
000010 fd c7 38 a7 dc 54 d6 3f d3 8b da a6 35 cd c6 bf
       0.3489295609498411 -0.17813749930527809
000020 65 64 d0 b4 cf d9 ce 3f ff 34 a3 fc ad 95 c4 3f
       0.24102207497415687 0.16081785999123352
000030 5c 37 0b 04 fd f2 c9 3f 85 8b 13 a2 5c 76 d0 bf
       0.20272791573955373 -0.2572242338921387
000040 dd 8e 83 6b 9d c8 e0 bf 97 6e 3a df d0 75 c7 bf
       -0.5244891261940797 -0.1832829561216058
000050 2a 87 62 9e d8 38 d6 bf e5 1b 1a f9 34 c5 cc 3f
       -0.34721961467049545 0.2247682777708341
000060 9a d7 c9 e5 e5 fc b3 3f 65 d4 f8 bc 13 d1 c1 3f
       0.07807766780919537 0.139193026801567
000070 40 60 79 af 29 c6 c2 3f cd a8 2a 05 81 3f 95 bf
       0.14667244976112848 -0.020750060978266305
000080 ef 29 0c 2c 98 dc d4 3f 58 03 d2 f9 c8 32 d5 bf
       0.3259640150214684 -0.33122467419166446
000090 c1 a5 47 75 03 9d 94 3f 8c 1a 2b a1 f1 5e d1 bf
       0.020130209000773783 -0.27141991366480833
0000a0 7a 7f ab fe 3f 13 cc 3f 03 99 b5 1f 6b 13 c0 bf
       0.21933746275953664 -0.12559260414418114
0000b0 00 29 1b 0c a4 71 c3 3f 46 bf 77 52 bc b3 86 bf
       0.1519055422889508 -0.011085006014553433
0000c0 4d 95 dc f4 ee bb d3 3f 8b 88 7d 9e fa f6 d2 bf
       0.3083455458857614 -0.2963244006879299
0000d0 50 7c d3 4c ac 6e d6 bf 6d d4 0d 50 62 60 d3 bf
       -0.35050494673300125 -0.3027578145768704
0000e0 8c cc 59 f7 8c 30 d2 3f 82 6b 38 60 d1 66 b9 3f
       0.28421329646443705 0.0992251262581885
0000f0 79 4a 96 4f 24 76 da 3f c1 f4 db 70 76 f5 d3 bf
       0.4134608056275862 -0.31185685178190786
000100 af be 5d 13 55 67 d9 bf 38 b5 d2 2d 5f 10 d3 bf
       -0.39693190470914436 -0.29787425494108133
000110 45 7e b1 f1 20 26 d0 bf bf 9d 9a f2 30 4c c8 3f
       -0.2523271904264884 0.1898251709546752
000120 42 c4 ea b6 ac 71 c2 3f 90 6f b5 8c 61 93 d5 3f
       0.14409407550332004 0.33712042561614286
000130 fd 48 50 a6 d5 7b d2 bf 2a ce b7 eb b3 20 d4 bf
       -0.28880826226772155 -0.3144960214551441
000140 b7 e6 cb 66 b6 53 c7 3f 19 50 14 06 58 19 d1 bf
       0.18224220294341872 -0.2671718654030442
000150 0b 07 92 3a f9 51 d0 3f 79 d1 9c 9b 20 8b ba bf
       0.2550032684304006 -0.10368541525969545
000160 e0 9d 7e 37 23 4a cc 3f 14 e1 93 cc 41 17 d4 bf
       0.2210124989480695 -0.31391949632917826
000170 63 33 d2 70 2f ee cc bf a6 5c bd cf 66 93 c5 3f
       -0.22601883896677596 0.16856084006824296
000180 f9 4f d8 c4 9e 42 b1 3f ff fd d6 eb 38 90 b8 bf
       0.06742279344354064 -0.09595065839584292
000190 29 a3 5a 78 8a fb d4 3f 49 a1 6b ca b0 37 d2 3f
       0.3278528380711117 0.2846490837823877
0001a0 a4 d0 38 d0 ea 57 d0 bf 73 3c be 79 87 5b ca bf
       -0.25536604246304706 -0.20591824955451762
0001b0 fe 65 c1 7d cf 76 d8 3f e1 e6 66 73 a0 a2 c2 bf
       0.38225161820227516 -0.14558797488080358
0001c0 4e fa c1 a7 f9 c0 bc bf a5 52 d4 19 06 ca d6 bf
       -0.1123195681156883 -0.35608055612946493
0001d0 e8 a7 37 48 33 d9 ce bf 81 03 74 9a 7b c9 c8 3f
       -0.24100342775574224 0.19364876786860566

gcn1.linear.bias f8 [10]
000000 a7 e4 51 69 5d 2f b0 bf 83 3c 71 20 ac 09 d0 bf
       -0.0632227308396006 -0.2505903546161294
000010 8e 44 2c 0c 29 37 aa 3f 60 ed 97 62 bf 6b d0 bf
       0.05120209001155117 -0.2565763914896788
000020 00 a8 5d f8 76 f3 d9 bf 4d 57 e7 57 df 4c cd bf
       -0.40548490766980194 -0.22890846054240868
000030 40 8b d6 3f 1a 45 d2 bf 91 ef 43 cb 0f 6a d4 bf
       -0.28546768411813517 -0.3189734921468182
000040 2e 54 57 53 43 3e dc 3f 40 04 d5 4a 7e dc 8a 3f
       0.4413002313497739 0.0131158701502746

gcn1.attn_weight_linear.weight f8 [1, 6]
000000 00 00 00 80 66 1a c0 3f 00 00 00 a0 7b 5e d8 bf
       0.12580567598342896 -0.38076677918434143
000010 00 00 00 40 fd 28 d1 bf 00 00 00 c0 c5 64 c1 bf
       -0.26812678575515747 -0.13588783144950867
000020 00 00 00 00 b4 57 b0 3f 00 00 00 a0 90 fd d6 bf
       0.06383824348449707 -0.35922637581825256

gcn1.attn_weight_linear.bias f8 [1]
000000 00 00 00 e0 fe 83 c6 bf
       -0.17590318620204926

gcn2.attn_linear.weight f8 [10, 10]
000000 00 00 00 a0 7e 3b c8 bf 00 00 00 00 40 b7 4c 3f
       -0.18931563198566437 0.0008763372898101807
000010 00 00 00 80 94 1f be bf 00 00 00 00 6c 70 96 bf
       -0.11766937375068665 -0.021913230419158936
000020 00 00 00 a0 b3 6d cb bf 00 00 00 c0 87 c8 cb bf
       -0.21428532898426056 -0.21705719828605652
000030 00 00 00 40 4c 9d c7 bf 00 00 00 40 e0 b5 bb bf
       -0.18448784947395325 -0.10824395716190338
000040 00 00 00 e0 a5 f2 cf bf 00 00 00 20 2d f8 d0 3f
       -0.24959252774715424 0.26514747738838196
000050 00 00 00 80 07 11 b0 bf 00 00 00 e0 c7 69 d1 3f
       -0.06275984644889832 0.2720813453197479
000060 00 00 00 80 52 39 b9 3f 00 00 00 c0 51 23 d1 bf
       0.09853091835975647 -0.26778072118759155
000070 00 00 00 40 f9 02 cc 3f 00 00 00 40 2f 46 b6 bf
       0.21884074807167053 -0.08700843155384064
000080 00 00 00 40 2a 08 bf bf 00 00 00 80 a8 cc d0 bf
       -0.12121833860874176 -0.2624913454055786
000090 00 00 00 60 d2 1e d4 bf 00 00 00 80 71 29 b7 3f
       -0.3143812119960785 0.0904761254787445
0000a0 00 00 00 c0 18 af b1 bf 00 00 00 00 73 84 bf 3f
       -0.06907801330089569 0.12311476469039917
0000b0 00 00 00 60 eb 9b d0 bf 00 00 00 c0 29 0d ce 3f
       -0.25951656699180603 0.23477670550346375
0000c0 00 00 00 40 60 b6 cd bf 00 00 00 00 12 f5 ab bf
       -0.23212817311286926 -0.05460411310195923
0000d0 00 00 00 00 ae e8 b0 3f 00 00 00 c0 7a e5 c4 3f
       0.06605041027069092 0.16325315833091736
0000e0 00 00 00 60 bc 56 d0 3f 00 00 00 a0 bf 6f d2 3f
       0.25529393553733826 0.28807058930397034
0000f0 00 00 00 80 30 0c d0 bf 00 00 00 00 a1 5f b4 3f
       -0.2507439851760864 0.07958418130874634
000100 00 00 00 c0 07 69 c1 bf 00 00 00 00 23 be a1 bf
       -0.13601776957511902 -0.03465375304222107
000110 00 00 00 c0 f7 4b ce bf 00 00 00 20 3a 6f d2 3f
       -0.2366933524608612 0.2880387604236603
000120 00 00 00 60 4e b5 cd bf 00 00 00 80 10 a2 c5 3f
       -0.23209552466869354 0.1690083146095276
000130 00 00 00 00 57 73 bc 3f 00 00 00 00 7c 4e ba 3f
       0.11113494634628296 0.10276007652282715
000140 00 00 00 00 42 e2 c5 bf 00 00 00 a0 58 65 d2 3f
       -0.17096734046936035 0.2874356806278229
000150 00 00 00 80 2c ca b1 3f 00 00 00 00 f3 d3 a4 3f
       0.0694911777973175 0.04067954421043396
000160 00 00 00 00 d9 d5 d1 bf 00 00 00 80 e9 fd c0 3f
       -0.27867722511291504 0.1327487826347351
000170 00 00 00 00 25 4a a8 bf 00 00 00 40 27 8b c2 bf
       -0.047440677881240845 -0.14487162232398987
000180 00 00 00 60 44 62 d1 3f 00 00 00 80 75 0c b2 3f
       0.27162274718284607 0.07050260901451111
000190 00 00 00 40 22 65 c6 bf 00 00 00 20 b0 7c c4 bf
       -0.17496135830879211 -0.16005517542362213
0001a0 00 00 00 00 a0 ed 8e bf 00 00 00 00 d3 99 c6 3f
       -0.01510167121887207 0.17656934261322021
0001b0 00 00 00 80 c2 af b4 bf 00 00 00 20 62 18 c7 bf
       -0.08080688118934631 -0.18043161928653717
0001c0 00 00 00 c0 e3 b8 bb bf 00 00 00 80 4d 3d ce bf
       -0.1082899421453476 -0.23624581098556519
0001d0 00 00 00 80 f5 de bc 3f 00 00 00 c0 b8 54 cf 3f
       0.11277708411216736 0.2447730004787445
0001e0 00 00 00 80 ac 0d d3 bf 00 00 00 00 3c cd b2 3f
       -0.297709584236145 0.07344412803649902
0001f0 00 00 00 80 00 e9 c4 3f 00 00 00 00 d9 5b ad 3f
       0.16336065530776978 0.05734136700630188
000200 00 00 00 40 6f d4 bc bf 00 00 00 80 71 20 c5 3f
       -0.11261649429798126 0.165052592754364
000210 00 00 00 80 72 45 c5 3f 00 00 00 80 61 45 be 3f
       0.16618186235427856 0.1182461678981781
000220 00 00 00 00 68 73 ac bf 00 00 00 40 d2 6f b5 bf
       -0.05556797981262207 -0.08373750746250153
000230 00 00 00 00 36 52 a1 3f 00 00 00 00 11 9a ac bf
       0.033830344676971436 -0.05586293339729309
000240 00 00 00 40 dd 1f b8 bf 00 00 00 c0 8e df c9 3f
       -0.09423620998859406 0.20213493704795837
000250 00 00 00 20 9d 64 d1 3f 00 00 00 00 4d 07 a0 bf
       0.27176597714424133 -0.0313057005405426
000260 00 00 00 40 1b 20 b2 bf 00 00 00 00 a0 e6 72 3f
       -0.07080240547657013 0.004614472389221191
000270 00 00 00 00 a6 55 93 bf 00 00 00 00 5b 76 b3 3f
       -0.018881410360336304 0.07602471113204956
000280 00 00 00 80 a5 af b6 3f 00 00 00 40 bf 61 d2 bf
       0.08861765265464783 -0.2872160077095032
000290 00 00 00 c0 0c e0 bd bf 00 00 00 e0 22 0b d1 3f
       -0.11669997870922089 0.26630470156669617
0002a0 00 00 00 80 41 89 bf 3f 00 00 00 00 1c 1b 90 bf
       0.12318810820579529 -0.015728414058685303
0002b0 00 00 00 a0 66 67 c8 bf 00 00 00 00 9e c3 c8 bf
       -0.19065554440021515 -0.19346976280212402
0002c0 00 00 00 40 09 21 d2 bf 00 00 00 00 58 63 ba bf
       -0.2832663655281067 -0.10307836532592773
0002d0 00 00 00 00 af 56 bb 3f 00 00 00 c0 21 cf c9 3f
       0.1067914366722107 0.20163366198539734
0002e0 00 00 00 80 2d b0 c2 3f 00 00 00 e0 c7 e3 d1 bf
       0.14600151777267456 -0.2795276343822479
0002f0 00 00 00 a0 68 57 c8 bf 00 00 00 00 48 8d a9 bf
       -0.19016750156879425 -0.049906015396118164
000300 00 00 00 20 e9 93 d3 3f 00 00 00 00 da 6b a7 3f
       0.30590274930000305 0.04574471712112427
000310 00 00 00 00 fd f6 b4 bf 00 00 00 c0 fa be c0 3f
       -0.08189374208450317 0.13082823157310486

gcn2.attn_linear.bias f8 [10]
000000 00 00 00 40 81 d5 be bf 00 00 00 00 f6 32 ca bf
       -0.12044532597064972 -0.2046802043914795
000010 00 00 00 c0 33 8b cd 3f 00 00 00 40 b0 67 c2 bf
       0.23081061244010925 -0.14378932118415833
000020 00 00 00 80 88 3a b0 bf 00 00 00 00 28 22 d4 bf
       -0.06339314579963684 -0.31458473205566406
000030 00 00 00 40 15 17 cb 3f 00 00 00 c0 b9 aa ce 3f
       0.21164193749427795 0.23958513140678406
000040 00 00 00 80 ef 80 bd 3f 00 00 00 c0 42 39 cc bf
       0.1152486503124237 -0.22049745917320251

gcn2.linear.weight f8 [10, 10]
000000 00 00 00 00 69 f9 d3 bf 00 00 00 00 f6 6f d0 bf
       -0.31209778785705566 -0.256833553314209
000010 00 00 00 40 0f 2f ce 3f 00 00 00 c0 ed 6e c3 3f
       0.23581114411354065 0.1518227756023407
000020 00 00 00 e0 e5 07 d1 3f 00 00 00 40 6b 34 c5 3f
       0.26610705256462097 0.16566219925880432
000030 00 00 00 80 28 7d b4 3f 00 00 00 00 50 5e 69 bf
       0.0800347626209259 -0.0030967295169830322
000040 00 00 00 80 7a c8 ce bf 00 00 00 60 00 57 d1 bf
       -0.24049311876296997 -0.27093514800071716
000050 00 00 00 a0 1c ee d2 bf 00 00 00 c0 de 91 c0 3f
       -0.2957831919193268 0.12945160269737244
000060 00 00 00 00 7c df c3 bf 00 00 00 00 d2 4a b0 bf
       -0.1552577018737793 -0.06364166736602783
000070 00 00 00 00 79 4b c7 bf 00 00 00 00 ea 80 ad bf
       -0.18199074268341064 -0.05762416124343872
000080 00 00 00 60 3e 7d cc bf 00 00 00 c0 ca 72 ca bf
       -0.22257213294506073 -0.20662817358970642
000090 00 00 00 80 79 da ba 3f 00 00 00 00 30 0f b8 bf
       0.10489615797996521 -0.09398174285888672
0000a0 00 00 00 c0 00 fd c8 3f 00 00 00 c0 89 f8 b9 bf
       0.19522103667259216 -0.10144864022731781
0000b0 00 00 00 c0 55 b1 cd bf 00 00 00 00 26 91 ac bf
       -0.23197433352470398 -0.05579489469528198
0000c0 00 00 00 a0 06 9f c3 bf 00 00 00 00 6d c4 b8 bf
       -0.15329058468341827 -0.09674721956253052
0000d0 00 00 00 80 5c 44 d3 bf 00 00 00 80 87 a5 c6 3f
       -0.3010474443435669 0.17692655324935913
0000e0 00 00 00 40 2d 2e cc bf 00 00 00 80 33 58 c4 3f
       -0.22015920281410217 0.15894168615341187
0000f0 00 00 00 40 2e 5e c2 3f 00 00 00 40 0f eb cc 3f
       0.14349916577339172 0.22592344880104065
000100 00 00 00 40 4f 0c cf bf 00 00 00 40 6d 1c cd 3f
       -0.2425631582736969 0.22743001580238342
000110 00 00 00 40 b9 22 c3 bf 00 00 00 80 26 0a be 3f
       -0.14949718117713928 0.11734238266944885
000120 00 00 00 e0 9f 01 d3 3f 00 00 00 00 93 d5 a6 bf
       0.29697415232658386 -0.04459819197654724
000130 00 00 00 00 b0 08 64 bf 00 00 00 40 5e a3 b2 bf
       -0.0024455487728118896 -0.07280530035495758
000140 00 00 00 40 1e e6 d0 bf 00 00 00 80 d3 6c c3 3f
       -0.2640452980995178 0.15175861120224
000150 00 00 00 a0 58 17 d4 bf 00 00 00 c0 d2 20 c9 3f
       -0.3139249384403229 0.19631418585777283
000160 00 00 00 c0 38 49 ce 3f 00 00 00 a0 c6 23 d3 3f
       0.236609548330307 0.29905858635902405
000170 00 00 00 80 70 18 b3 bf 00 00 00 20 fd a0 d0 bf
       -0.07459166646003723 -0.2598259747028351
000180 00 00 00 80 73 33 b2 3f 00 00 00 c0 55 5c c6 3f
       0.07109758257865906 0.17469283938407898
000190 00 00 00 20 c5 24 d4 bf 00 00 00 00 14 60 b2 bf
       -0.3147442638874054 -0.07177853584289551
0001a0 00 00 00 00 a6 43 c8 bf 00 00 00 00 80 52 9c bf
       -0.18956446647644043 -0.027658462524414062
0001b0 00 00 00 00 64 ec c3 bf 00 00 00 20 b6 8b c0 bf
       -0.15565156936645508 -0.12926365435123444
0001c0 00 00 00 00 1d b3 b9 bf 00 00 00 e0 98 3b d3 bf
       -0.10038930177688599 -0.30051252245903015
0001d0 00 00 00 a0 1c 9b d0 3f 00 00 00 20 75 f7 d0 3f
       0.2594672739505768 0.26510360836982727
0001e0 00 00 00 00 01 66 a9 bf 00 00 00 00 41 70 a2 bf
       -0.04960635304450989 -0.0360126793384552
0001f0 00 00 00 20 00 85 c0 bf 00 00 00 40 d6 46 d2 bf
       -0.1290588527917862 -0.2855735421180725
000200 00 00 00 60 ef b1 d3 bf 00 00 00 80 5c 16 be 3f
       -0.30773529410362244 0.11752870678901672
000210 00 00 00 a0 4c 39 c6 bf 00 00 00 c0 96 05 ca bf
       -0.17362363636493683 -0.20329555869102478
000220 00 00 00 00 e8 43 99 bf 00 00 00 80 6c f5 ba bf
       -0.024673104286193848 -0.10530737042427063
000230 00 00 00 00 be 30 ba bf 00 00 00 00 2c cf 84 3f
       -0.10230624675750732 0.010160773992538452
000240 00 00 00 c0 e1 2b b1 bf 00 00 00 80 a2 df bb bf
       -0.06707583367824554 -0.1088811457157135
000250 00 00 00 80 75 61 c3 bf 00 00 00 60 80 78 d0 bf
       -0.15141171216964722 -0.25735482573509216
000260 00 00 00 60 5e f8 d0 3f 00 00 00 c0 cc 32 c0 bf
       0.2651592195034027 -0.12655028700828552
000270 00 00 00 00 84 73 b5 3f 00 00 00 80 a0 16 bc bf
       0.08379387855529785 -0.10972025990486145
000280 00 00 00 00 56 50 9a 3f 00 00 00 a0 51 de d2 3f
       0.02569708228111267 0.29481926560401917
000290 00 00 00 00 14 a6 c2 3f 00 00 00 20 eb 89 d1 bf
       0.14569330215454102 -0.27404287457466125
0002a0 00 00 00 40 c4 10 c0 3f 00 00 00 60 19 36 d3 3f
       0.12551167607307434 0.3001769483089447
0002b0 00 00 00 00 38 4c b5 3f 00 00 00 c0 0a 23 cb 3f
       0.08319425582885742 0.21200689673423767
0002c0 00 00 00 20 f5 f3 d3 3f 00 00 00 00 21 cf a8 bf
       0.31176498532295227 -0.048455268144607544
0002d0 00 00 00 00 6c cd b0 3f 00 00 00 00 0f 22 cc bf
       0.06563448905944824 -0.21978938579559326
0002e0 00 00 00 00 ce ae b0 bf 00 00 00 c0 0a fa cd 3f
       -0.06516730785369873 0.23419317603111267
0002f0 00 00 00 40 1d c0 c4 3f 00 00 00 40 0e 9d c9 bf
       0.16211286187171936 -0.2001054584980011
000300 00 00 00 80 a0 3a d0 bf 00 00 00 40 1e a9 cb bf
       -0.2535783052444458 -0.2160985767841339
000310 00 00 00 80 16 f9 d3 bf 00 00 00 00 d7 3b cf bf
       -0.3120781183242798 -0.24401366710662842

gcn2.linear.bias f8 [10]
000000 00 00 00 00 11 05 b4 bf 00 00 00 c0 2d 51 cb 3f
       -0.07820230722427368 0.21341487765312195
000010 00 00 00 00 c3 19 ab 3f 00 00 00 40 82 c9 ce bf
       0.05293092131614685 -0.240524560213089
000020 00 00 00 00 62 3c d0 bf 00 00 00 00 ea 22 c4 3f
       -0.25368547439575195 0.15731549263000488
000030 00 00 00 c0 cb 1b ce bf 00 00 00 00 76 ef a3 bf
       -0.23522326350212097 -0.0389363169670105
000040 00 00 00 80 c9 6a c3 3f 00 00 00 80 ba bb c2 bf
       0.15169638395309448 -0.14635401964187622

gcn2.attn_weight_linear.weight f8 [1, 10]
000000 00 00 00 00 8d a7 a1 bf 00 00 00 00 be 2f 9c bf
       -0.034481436014175415 -0.027525871992111206
000010 00 00 00 80 06 27 b3 bf 00 00 00 a0 f1 85 c4 bf
       -0.07481423020362854 -0.1603376418352127
000020 00 00 00 00 9c 0a d2 bf 00 00 00 a0 28 5c d0 bf
       -0.28189754486083984 -0.255624920129776
000030 00 00 00 e0 88 ac c5 bf 00 00 00 20 14 8c d3 3f
       -0.16932784020900726 0.3054247200489044
000040 00 00 00 40 12 8d c3 bf 00 00 00 80 79 2e cb bf
       -0.1527426540851593 -0.21235579252243042

gcn2.attn_weight_linear.bias f8 [1]
000000 00 00 00 80 73 9f b3 3f
       0.07665178179740906

concat_linear.weight f8 [3, 8]
000000 85 2a cb cc 1d 6b c6 3f cb f1 29 e2 70 ad c4 3f
       0.17514393329323155 0.16154299777180223
000010 f3 7a 27 7f d5 8a d3 3f 4e c8 81 98 78 12 cf 3f
       0.305348753141444 0.24275119253758465
000020 68 7a 67 22 78 37 d6 bf ff 21 54 13 dd 6d b5 3f
       -0.34713557586466104 0.08370763513460842
000030 86 46 19 0a 9e b2 c5 3f 5c b2 b2 66 30 a4 b6 bf
       0.16951346867658773 -0.08844282634044859
000040 fe 99 95 32 c6 2d c7 bf 90 f7 a4 d4 ff 8c d4 3f
       -0.18108441801014402 0.3211059166532033
000050 3c 5c 9d 03 b2 1f ba bf 61 a7 b1 f0 8d 53 c6 bf
       -0.1020461329293178 -0.17442487957606104
000060 8a 5d 83 0f 4c 8e d2 bf da ed 68 c1 9d 92 a4 3f
       -0.28993512644725483 0.040181093082050715
000070 9f e9 1c 29 ea 1a c1 3f 6a 41 bd c9 ec da 9a 3f
       0.13363387114970934 0.026225757420719566
000080 c8 ca e3 b8 0d bc 98 bf 93 66 e6 0f 31 a7 cc bf
       -0.02415486756303656 -0.2238522842060787
000090 21 8b 0e e9 a4 b5 d9 bf 9d 19 be ec 24 f8 b1 bf
       -0.4017116809792914 -0.0701926305756388
0000a0 7a 06 c1 b5 fd f3 d2 3f 23 18 a8 dc ea 1f c1 3f
       0.29614203214087065 0.1337865426468748
0000b0 5f a4 68 3a b6 50 c3 bf f4 67 0a 68 8a 2e a8 3f
       -0.15090062953939573 0.0472300769808526

concat_linear.bias f8 [3]
000000 19 80 32 9c 67 43 cd bf b5 dc 4b b5 b1 56 c6 bf
       -0.2286195290262192 -0.17452069618568591
000010 b5 be f6 51 ce 73 a0 3f
       0.032133529191353295

aspect_merge_linear.weight f8 [1, 5]
000000 a2 8a 8e 1c 5a 78 cb 3f 6b 89 d2 b2 6f 46 d9 3f
       0.21461035150885716 0.39492409194112693
000010 35 1f bc 90 a6 df d9 bf 78 9f 12 71 b9 58 d2 3f
       -0.4042755521227151 0.2866653064943345
000020 75 c9 d9 10 53 55 cf bf
       -0.24479139635839045

aspect_merge_linear.bias f8 [1]
000000 7c dc b4 5f 2f 9f c9 3f
       0.2001704423252909

Aspect_Representation.aspEmbed.weight f8 [20, 10]
000000 71 8a 07 cf 76 80 d7 3f f7 13 33 cb 6e ff 9d 3f
       0.36721582620354015 0.029294711258234653
000010 c5 d1 6f c5 f8 b0 c0 3f 1c 04 04 c9 b8 92 d1 bf
       0.13040074959248052 -0.2745801890415025
000020 30 1a a3 07 6b ae 7f bf f6 19 50 bc de b0 9e bf
       -0.007734697423251322 -0.029971580737788238
000030 58 52 0f 12 89 0f bb 3f af a6 e7 90 99 2b bf 3f
       0.10570580187715828 0.12175903117863628
000040 5a 6f e7 c6 c5 ad d6 3f 99 7b b8 58 23 41 d9 bf
       0.3543562357351583 -0.39460071243404965
000050 fb ab 26 09 4f 83 92 bf 1a 6d 5a bc 9c 76 d1 bf
       -0.018079028066193086 -0.2728645171534524
000060 89 49 33 8d 48 57 d6 bf c5 87 2c da 90 6e ae bf
       -0.34907735623451025 -0.059437300331651545
000070 8f 2f f3 57 3d f5 d7 bf 29 6d 39 da 8b 6f ce 3f
       -0.3743432387243439 0.23777912288174122
000080 12 5a ff 10 22 c3 ae 3f 3b 84 75 71 4b 75 d3 bf
       0.06008249719132065 -0.3040341003416562
000090 27 97 bd 9d e1 81 c7 3f 25 60 87 3f 76 f4 de bf
       0.18365116312195903 -0.4836707706831496
0000a0 83 1e 85 d7 cf cc c2 bf 56 30 4d 88 b0 cc a4 bf
       -0.14687536261975617 -0.04062415756070041
0000b0 0a 0d 7c ab 42 f2 d8 bf 1e b9 56 dc d8 5c d1 bf
       -0.38978640314617563 -0.2712919379945492
0000c0 3a c5 81 51 52 56 b1 bf a0 43 bb 42 9f f3 d8 3f
       -0.06772341241755422 0.3898695136713801
0000d0 16 d3 51 74 25 04 dc 3f 42 32 cd 45 9f 58 d5 3f
       0.4377530704435214 0.33353406731183466
0000e0 c6 23 33 29 ac 20 ce bf b5 2f d8 82 04 10 cf bf
       -0.23537208568293816 -0.24267631901636624
0000f0 35 7a 8e 62 9c 3b d7 3f e1 8e dc dc b2 28 bc 3f
       0.3630133593050318 0.10999601261260807
000100 6d 59 68 d8 c9 cb 95 3f 07 0b d2 b2 32 af a7 3f
       0.021285203774902884 0.04625852997653195
000110 a5 7c c5 10 63 22 d7 bf 8a 87 89 ae 50 21 ca bf
       -0.3614738143714454 -0.20414169809651767
000120 a9 5e 45 f5 5e 4a db 3f e4 f9 c5 80 88 c9 c4 bf
       0.42641424133533207 -0.16240030563126517
000130 9a 84 ff 07 a0 e4 ac bf 01 ea 78 b5 fc 2f db bf
       -0.056431771255810406 -0.42480390283495245
000140 28 56 e6 45 6d e6 cb bf 52 57 2f 92 8c 55 a4 3f
       -0.2179695693309196 0.03971518787845575
000150 63 4b 64 09 12 0d d2 bf 20 63 04 12 e5 a6 a1 bf
       -0.2820477573124462 -0.034476431321485146
000160 3a 65 c9 99 13 5b c5 3f 1a e7 a9 78 41 ab d7 bf
       0.16684193619838955 -0.3698276213032031
000170 8d f7 9d af a0 47 c0 3f c1 cb f3 4a 23 eb cd bf
       0.1271859033112687 -0.23373833808690672
000180 7a eb 9c cb 11 fe c5 bf d3 21 ff d1 20 be cd 3f
       -0.1718160862163492 0.2323647523283073
000190 e5 ab 6e c7 b4 32 d6 3f 5e 9f ca 40 9f a1 c7 bf
       0.34684485889255107 -0.1846198145260542
0001a0 ec 77 bf 37 e4 3c ca bf 2f 67 a5 9c f7 1a d8 bf
       -0.20498326036516745 -0.37664594933959256
0001b0 81 3a 14 fb d7 62 cc bf 06 40 07 8b 8a 8c dc bf
       -0.22176646957128202 -0.44607795311912957
0001c0 7d 47 e3 0a 91 be c2 bf b0 55 ed 10 f0 d9 a0 3f
       -0.14644063026076629 0.03291273314122678
0001d0 7e 77 95 1b 04 b6 db bf b5 f4 08 ce 63 9a d4 3f
       -0.43298437780128285 0.32192320938686275
0001e0 d5 33 de 7d 6a 7a d5 3f 10 c3 80 64 b0 a5 e1 bf
       0.33559667865557447 -0.5514757121037253
0001f0 0c ac d9 f5 76 16 c3 bf b7 5c 5d 4c 91 66 bc 3f
       -0.14912306789787555 0.11094005693790875
000200 82 b0 70 8c b2 e1 ac bf ce 3d 08 04 e3 f3 c3 bf
       -0.05640943493230656 -0.15588033387073924
000210 29 1e 48 4e fb 46 cb bf a2 9a c6 82 34 98 d0 3f
       -0.2131036884531892 0.25928986331056525
000220 3a 60 3a d2 5e 1e d1 bf 09 f4 4a 67 fc 94 d0 3f
       -0.26747866182404645 0.25909338080583716
000230 f6 89 b7 56 90 f8 a6 3f c1 2f 4b de 84 4e c1 3f
       0.04486514147335534 0.13520871023354
000240 9e d0 05 b7 73 e4 d8 3f 62 1a 4d f2 a3 a5 bb bf
       0.38894360421478236 -0.10799622216755148
000250 4a a6 4d 25 a7 66 d0 bf 71 d1 fe 6c f1 e1 9a bf
       -0.2562654365816327 -0.026252529408979656
000260 e3 38 3e eb d8 29 da 3f 56 23 8c b2 c3 5e d2 bf
       0.40880415890650407 -0.2870339625956623
000270 a1 3a 5e 50 ea 29 bd 3f 2a b0 2f 28 cf 06 d8 bf
       0.11392082655059223 -0.37541560100976545
000280 b8 83 a6 9a b5 a8 cc 3f c7 fe b2 67 bf 1c bb 3f
       0.2238986020211351 0.1059074047252536
000290 53 32 32 4e a4 5e 80 bf 0a c6 79 42 15 58 cc 3f
       -0.007993014942507736 0.2214380812252304
0002a0 e7 f5 22 b3 8d 61 7f 3f bd d8 81 22 55 e3 c8 3f
       0.007661393656403593 0.19443763909266024
0002b0 fc 5e 68 0d b0 8c d9 bf 03 60 bc 83 0e be be bf
       -0.39921189603181495 -0.12008753505904228
0002c0 8e 21 79 8e f6 96 c7 3f 00 bb 2b 93 6c 24 d8 3f
       0.18429452854821843 0.37722315189505196
0002d0 d7 25 e4 87 12 f6 c6 3f a0 38 e7 31 2c 10 cc bf
       0.17938453326523415 -0.2192435496967322
0002e0 80 d6 34 76 f5 3c d2 3f 89 73 30 2d 27 2e b2 bf
       0.2849706320151668 -0.07101673939946641
0002f0 ab 89 c3 7a b4 99 c0 bf 07 91 76 4c 7a 24 d4 bf
       -0.12969070429160232 -0.3147264239035085
000300 93 88 c2 86 cd 6b a9 bf 04 9d b9 32 c6 1b da 3f
       -0.04965059537904994 0.40794520333879825
000310 5d b1 c3 22 5e c3 b4 3f d6 54 90 7d e8 fb c4 bf
       0.08110607479801986 -0.16393762713474896
000320 e6 79 b8 f5 ed 8e c4 3f 08 96 d7 46 7e 5c c0 bf
       0.16061186311794912 -0.12782267054642227
000330 70 c6 9b 36 2a 39 d9 3f 0e 0b 25 33 d7 ff d8 bf
       0.394114068344698 -0.39061527247047045
000340 60 65 a1 88 cc cb bc bf db ac 1b 34 91 64 de bf
       -0.11248472533897802 -0.47488813484842546
000350 57 d8 46 c6 2b 55 c7 bf 2c ad 48 7c b9 80 c0 3f
       -0.18228671246987702 0.12892836159276422
000360 e8 02 66 04 0a 14 dd 3f 8a d8 e1 fb 39 42 b2 3f
       0.45434809140719645 0.07132303618877436
000370 9f d4 c1 fb 3d be db 3f 55 f9 f9 ef 58 24 96 3f
       0.43348645768794286 0.021623029372216013
000380 0c 29 b0 c5 3c 42 d0 3f ea 35 a9 24 96 35 d6 3f
       0.2540428095386609 0.3470206602113125
000390 38 c5 dc 64 59 3f d7 3f ea 75 fb 79 8f e7 d3 bf
       0.3632415280327055 -0.3110083285554014
0003a0 f2 27 17 54 0e b0 d7 3f d3 45 68 c0 9a 6a cb 3f
       0.37012060367544486 0.214190811108479
0003b0 f5 1d 53 1e a7 74 c9 bf 4b 7a 93 b4 b9 f2 d1 bf
       -0.19887246113488258 -0.280439783424218
0003c0 ea e8 a2 84 b5 65 d9 bf 47 1c 1b 87 30 c9 b6 3f
       -0.3968328280713097 0.08900740908130543
0003d0 e5 57 76 e4 6f 5b d6 bf 94 6b 31 d4 9e 2e c8 3f
       -0.34933087645310784 0.1889227424715868
0003e0 57 ee 15 26 1d c9 bc 3f b2 11 95 9b a2 e8 d6 bf
       0.11244375400377159 -0.3579489249571238
0003f0 61 2d 71 dc 8e c6 bf 3f 4b 72 cb ff 0a b5 a0 bf
       0.12412350541960883 -0.03263124821180393
000400 49 4a 4c cf a3 50 c7 3f 66 b3 2a 14 3f 28 d0 3f
       0.18214843389485427 0.2524564454022794
000410 a8 86 7b ef 23 05 db bf 25 22 46 4b 45 65 db 3f
       -0.42218874346699886 0.42805607176754484
000420 e2 ef af 73 99 1a d7 3f 73 c3 dd df ae 95 c6 3f
       0.36099849984725385 0.17644296580285931
000430 05 db 3a 8a c4 50 d8 bf 91 e2 3a b8 8e a8 c9 bf
       -0.37992967127813443 -0.2004564666329043
000440 d5 0e ce de 52 44 c1 bf 2e 49 ab b1 61 f3 bf bf
       -0.13489757422586615 -0.12480745875953822
000450 40 b1 e9 e0 3a a1 d1 3f 4c bf 32 39 45 90 c4 3f
       0.27546569790026254 0.1606527833259811
000460 9d 57 2d ea cd a9 d6 3f b0 97 07 fe ff 1c ba bf
       0.3541140353094024 -0.10200500442405658
000470 13 41 93 ef f1 e7 c4 3f 7a bd 2e a9 7a fd c5 3f
       0.16332840154655823 0.17179806958072757
000480 fd ca fe ca 61 b9 d7 bf 13 e0 b5 1f 36 9a d6 bf
       -0.3706898195625142 -0.35316231819842975
000490 c1 74 59 6a 9a b7 c7 bf 42 85 b0 ce c2 c9 d7 3f
       -0.18529062455028192 0.37168951210522405
0004a0 71 86 d3 e3 90 40 dc bf 9e bd fa 36 06 0e d4 bf
       -0.4414407944551391 -0.31335597390258296
0004b0 75 f6 da 91 08 a0 d1 3f ef d3 8b b9 c1 a2 c7 3f
       0.2753926681869879 0.18465444145081686
0004c0 9c f7 6a 8a 9b c6 d7 3f 09 7b 8e 4d 84 8c d6 bf
       0.37149704472892053 -0.3523264653576211
0004d0 e5 21 a6 15 f1 1d d3 bf 7c 6e 5d 35 74 22 c3 3f
       -0.2987024985709737 0.14948895078383717
0004e0 fe 6c df 82 88 8d d9 3f 44 13 55 56 df 5c cb 3f
       0.39926350384276066 0.21377174106069152
0004f0 b4 b8 9e 90 93 76 aa 3f 33 a5 a5 85 40 43 bd 3f
       0.051685916332063014 0.11430743468158226
000500 8e 84 c0 4c ac 6e da 3f 7b f4 7c e6 17 25 d4 bf
       0.4130049466639968 -0.31476399906734515
000510 84 2a 80 67 a2 9f cd bf 20 28 12 92 12 f2 d5 3f
       -0.23143415502302755 0.34289993538607355
000520 03 6e dd 51 c9 f6 d3 bf 44 e7 30 1b 65 11 d6 bf
       -0.31193764681458463 -0.34481170325635824
000530 2d 18 de 51 66 31 d2 3f ff 2a de 84 16 92 ac 3f
       0.28426511759642176 0.0558020627205078
000540 25 c1 7f 82 88 03 be 3f 97 06 f4 10 46 d5 d1 bf
       0.11724141298305264 -0.2786421933707088
000550 52 00 05 d9 2b d9 a0 bf 36 c7 3c dc 24 d1 dd 3f
       -0.03290688537754306 0.46589013583717376
000560 ed ea 51 08 41 c1 d1 bf 28 36 3c c4 78 ec 9a 3f
       -0.277420290112487 0.02629269311642282
000570 27 8e 10 05 db 6c c7 3f ac 9d 4a 03 e5 6c ce bf
       0.18300950763033194 -0.23769819889751653
000580 59 02 d4 a1 88 ba da 3f 2c e1 c0 ba 70 10 c7 bf
       0.4176351147034772 -0.18018921965427503
000590 96 7a 95 31 b3 92 b7 bf 55 88 e5 b9 78 ff b8 bf
       -0.09208221397919156 -0.09764818705073826
0005a0 b3 b1 3d 42 5d 00 d1 bf 94 24 50 c4 1c c1 df bf
       -0.26564723461958833 -0.4961616437072476
0005b0 ec 75 69 e1 e1 73 d0 3f b3 02 fe 93 63 1f ba 3f
       0.2570728970802907 0.10204145777789612
0005c0 cd 9d c8 6c af ef d8 bf c7 81 5a b8 4f 72 d7 bf
       -0.3896292269077691 -0.3663520145728651
0005d0 64 98 54 c1 15 0c dd 3f da c3 58 47 78 7c be 3f
       0.45386260871817385 0.11908675901283008
0005e0 62 b3 66 b9 a2 aa c4 3f 5e c4 5e bd 1c 20 d3 bf
       0.1614573865203069 -0.298834977084942
0005f0 2f 54 c1 0f b1 a6 c8 bf 35 d4 9a a3 ad b0 9f bf
       -0.1925870253495829 -0.030947411642689288
000600 32 b0 ed 72 c0 3c ad bf b0 5a 47 20 24 24 d5 bf
       -0.057104124097208234 -0.3303308787557553
000610 b0 3c 21 12 66 44 a2 3f bb d8 99 47 77 4a c3 3f
       0.0356780907755988 0.15071002002850328
000620 0a eb 43 26 23 82 96 bf 79 15 60 00 c0 01 c3 3f
       -0.021980809412506942 0.1484909059364943
000630 c8 f5 8a b7 15 01 c3 bf a5 61 16 a3 59 a8 c9 3f
       -0.14847060644198806 0.20045013869527142

Aspect_Representation.linear.weight f8 [1, 5]
000000 60 87 8b f8 1d f6 c2 3f 76 25 f9 7b de 7d cb bf
       0.14813589702594765 -0.21477871945743815
000010 40 fb 59 e8 f9 60 dc bf 3b 48 77 d3 88 fc cd 3f
       -0.4434189576203842 0.2342692406223835
000020 a9 60 8b 93 07 3d b8 3f
       0.09468123771819371

Aspect_Representation.linear.bias f8 [1]
000000 a3 1f 04 80 ff 1c cd bf
       -0.22744745016848097

batch_norm.weight f8 [4]
000000 00 00 00 00 00 00 f0 3f 00 00 00 00 00 00 f0 3f
       1.0 1.0
000010 00 00 00 00 00 00 f0 3f 00 00 00 00 00 00 f0 3f
       1.0 1.0

batch_norm.bias f8 [4]
000000 00 00 00 00 00 00 00 00 00 00 00 00 00 00 00 00
       0.0 0.0
000010 00 00 00 00 00 00 00 00 00 00 00 00 00 00 00 00
       0.0 0.0

batch_norm.running_mean f8 [4]
000000 00 00 00 00 00 00 00 00 00 00 00 00 00 00 00 00
       0.0 0.0
000010 00 00 00 00 00 00 00 00 00 00 00 00 00 00 00 00
       0.0 0.0

batch_norm.running_var f8 [4]
000000 00 00 00 00 00 00 f0 3f 00 00 00 00 00 00 f0 3f
       1.0 1.0
000010 00 00 00 00 00 00 f0 3f 00 00 00 00 00 00 f0 3f
       1.0 1.0
